heart_disease_model.pt (torch, 2519 bytes, 5 tensors)

layer.input.weight f4 [4, 20]
0.26001248 -0.30205104 -0.36166206 0.2916155 -0.09081802 -0.24841557 -0.5496319 -0.10932325
-0.4125478 0.18002565 0.0044719083 -0.20369643 0.21991353 0.27143523 0.3112072 -0.08760333
-0.07445122 -0.45815805 -0.38753363 -0.16949096 -0.0775367 0.5149919 0.24343053 0.23540346
-0.072804146 -0.45807806 0.30358416 0.26885176 -0.24658684 -0.28139856 0.20678286 0.320638
0.1611608 0.42335856 -0.011509017 0.55490285 0.6011006 0.41908392 0.08217252 0.52462685
0.17072119 -0.20242925 -0.040570218 -0.02304605 0.0747701 0.24434586 0.16223939 0.13655935
-0.30162996 -0.063746914 0.1382794 0.22601694 0.16938916 -0.031760145 -0.021521727 0.06447541
0.2815558 0.34859434 0.04896186 0.11153571 0.030023757 0.3307092 -0.016980864 -0.08688976
-0.017387206 -0.22959988 0.54916644 0.3672885 0.040788002 -0.51568675 0.5518013 0.22243762
0.1103864 0.37377387 0.0420768 0.59328556 0.45406237 0.33873212 0.14151804 0.61010486
00000000: 5b20 853e 6fa6 9abe c52b b9be a04e 953e
00000010: ccfe b9bd a760 7ebe adb4 0cbf dee4 dfbd
00000020: 7739 d3be a558 383e 1689 923b cc95 50be
00000030: 0331 613e 8ff9 8a3e 8d56 9f3e 6069 b3bd
00000040: e279 98bd b193 eabe cf6a c6be 0a8f 2dbe
00000050: 90cb 9ebd 82d6 033f da45 793e 9b0d 713e
00000060: 571a 95bd 3589 eabe 626f 9b3e f0a6 893e
00000070: 4381 7cbe 7913 90be e3be 533e aa2a a43e
00000080: 5607 253e 74c2 d83e 5190 3cbc 1d0e 0e3f
00000090: bbe1 193f 2b92 d63e 114a a83d f24d 063f
000000a0: 89d1 2e3e 9d49 4fbe f52c 26bd 12cb bcbc
000000b0: 1121 993d cd35 7a3e 1522 263e 37d6 0b3e
000000c0: 3e6f 9abe be8d 82bd 1d99 0d3e fc70 673e
000000d0: 5a74 2d3e ed16 02bd 554e b0bc af0b 843d
000000e0: 1528 903e f57a b23e 3b8c 483d d66c e43d
000000f0: 62f4 f53c b752 a93e 741b 8bbc 42f3 b1bd
00000100: 9d6f 8ebc 3b1c 6bbe 2c96 0c3f 3d0d bc3e
00000110: 5211 273d 0c04 04bf da42 0d3f b0c6 633e
00000120: 4412 e23d 4a5f bf3e b958 2c3d 90e1 173f
00000130: dd7a e83e 4c6e ad3e 1bea 103e d52f 1c3f

layer.input.bias f4 [4]
-0.110946506 -0.14724311 -0.35617858 -0.18662415
00000000: ec37 e3bd e6c6 16be 0a5d b6be 671a 3fbe

layer.hidden_1.weight f4 [4, 4]
0.5284313 0.2802311 0.23986733 -0.37943134 -0.28409797 0.0014027953 -0.37000126 -0.47699922
0.25897717 -0.0999843 -0.78943634 -0.2886749 -0.47099552 0.9503806 0.38133425 0.901242
00000000: 4647 073f 737a 8f3e c89f 753e d344 c2be
00000010: 4a75 91be 00de b73a ce70 bdbe 3e39 f4be
00000020: a898 843e 92c4 ccbd 8018 4abf 32cd 93be
00000030: 5326 f1be 254c 733f 3e3e c33e ccb7 663f

layer.hidden_1.bias f4 [4]
-0.049433082 -0.072317004 1.0844308 -0.113339044
00000000: 587a 4abd f01a 94bd a1ce 8a3f 4d1e e8bd

layer.output.weight f4 [1, 4]
-0.37007654 -0.44098938 -0.7456652 0.6622276
00000000: ac7a bdbe 5cc9 e1be eae3 3ebf bf87 293f
