heart_disease_model_Neural_Net.pt (torch, 2487 bytes, 5 tensors)

layer.input.weight f4 [2, 20]
0	0x3e68e9fe	0.22745511
1	0xbe998e19	-0.29991224
2	0xbac636c3	-0.0015122521
3	0x3e5ca08a	0.21545616
4	0xbeb7c113	-0.3588949
5	0xbd1d91fc	-0.0384693
6	0xbda89fad	-0.08233581
7	0xbdb3c207	-0.08777242
8	0x3e439dea	0.19103208
9	0xbca5cb32	-0.020238493
10	0xbe20502e	-0.15655586
11	0x3daef0ce	0.085420236
12	0xbe7b35f4	-0.245323
13	0xbd9eb529	-0.07749397
14	0x3e55d5f3	0.20882396
15	0xbdafa006	-0.08575444
16	0x3e0f20cc	0.13977355
17	0x3c7845cd	0.015153361
18	0x3dfa5e91	0.12225068
19	0x3c8d8e38	0.01727973
20	0x3d7f4029	0.062317047
21	0x3eed2f3b	0.46325096
22	0x3e087c07	0.13328563
23	0x3e575bae	0.21031067
24	0xbd6ec33f	-0.05829167
25	0xbecad454	-0.39615119
26	0x3ec34982	0.3814202
27	0x3f01681d	0.5054949
28	0xbe0e7321	-0.13911106
29	0xbec4f479	-0.38467768
30	0x3f116649	0.567967
31	0x3e6c6a2f	0.23087381
32	0x3d8ad799	0.06779403
33	0x3e47c554	0.19508868
34	0xbd93fa82	-0.07225515
35	0x3f0bef56	0.5466207
36	0x3ed24f4e	0.4107613
37	0x3f1699b0	0.5882826
38	0x3e939c3a	0.2883013
39	0x3ef4b406	0.47793597

layer.input.bias f4 [2]
0	0x3e0059b0	0.12534213
1	0x3e829041	0.25500682

layer.hidden_1.weight f4 [2, 2]
0	0xbe8a086b	-0.26959547
1	0x3f8df978	1.1091757
2	0x3f6adacc	0.9174011
3	0xbe7d8818	-0.24758947

layer.hidden_1.bias f4 [2]
0	0xbd2772e3	-0.04088105
1	0x3f59e9d6	0.8512243

layer.output.weight f4 [1, 2]
0	0x3f44c8db	0.7686898
1	0xbf7a332b	-0.97734326
